best_model_params.pth (torch, 440300 bytes, 6 tensors)

linear1.weight f4 [128, 784]
0	0xbd0fbb80	-0.035090923
1	0x3d05ad51	0.03263599
2	0xbba2b6c8	-0.004965637
3	0xbcc423c0	-0.023942828
4	0x3c3972d4	0.011318881
5	0xbd112c2e	-0.035442524
6	0x3b945fe8	0.0045280345
7	0x3a76b1c0	0.0009410642
8	0x3b771fd0	0.003770817
9	0x3cb0c320	0.021577418
10	0xbcf61dde	-0.030043539
11	0xbd0f1eac	-0.03494136
12	0x3d017e93	0.03161485
13	0xbccff7f9	-0.025386797
14	0xbbe3a4e0	-0.006947145
15	0xbccc349e	-0.024927434
16	0xbcfa3e35	-0.03054724
17	0x3c9cf9ba	0.019162048
18	0xbceebb63	-0.029142087
19	0x3c418e44	0.011813704
20	0xbc67b680	-0.0141426325
21	0xbd1008f0	-0.035164773
22	0xbbad261c	-0.005284084
23	0xbcae8a4a	-0.021306176
24	0x3d0c041d	0.03418361
25	0x3ced3136	0.02895413
26	0xbcdd433c	-0.027009599
27	0x3b895570	0.004191093
28	0xbcc75465	-0.024332235
29	0x3ca1d19e	0.019753274
30	0xbcfb885c	-0.03070467
31	0x3c0c2d94	0.008555789
32	0xbc0886a3	-0.008332881
33	0x3c72ca71	0.014818774
34	0x38fec1ec	0.000121477846
35	0xbc77106f	-0.015079602
36	0xbcd28e65	-0.025702665
37	0x3b2f3b16	0.0026738099
38	0xbc9c696f	-0.019093243
39	0xbbd1e6eb	-0.0064057014
40	0x3be6609f	0.007030561
41	0xbc22ca24	-0.009935889
42	0x3b350336	0.0027620322
43	0xbca8765d	-0.020564253
44	0x3d14c426	0.036319874
45	0x3cd9f537	0.026606185
46	0xbc47f031	-0.012203262
47	0x3b5041f4	0.0031777592
48	0x3cf38c0f	0.029729871
49	0x3c6ba4cf	0.014382555
50	0xbc888200	-0.016663551
51	0xbcbc2e5d	-0.022971326
52	0x3d084e91	0.03327805
53	0xbcb1b91e	-0.021694716
54	0x3c26bcb4	0.010176826
55	0xbc329d2a	-0.010901729
56	0xba4028c0	-0.0007330291
57	0x3cec257e	0.028826471
58	0x3cc741e8	0.024323419
59	0x3cc11b6e	0.02357265
60	0x3ba87d31	0.005141877
61	0x3c681c1a	0.014166856
62	0xbd069f9e	-0.032867067
63	0xbcd28121	-0.02569634
64	0xbbbd989c	-0.0057860147
65	0xba6c181d	-0.00090062787
66	0x3cb36415	0.021898309
67	0x3d0ec417	0.034854975
68	0x3d428036	0.047485553
69	0xbc6d4779	-0.014482372
70	0x3d40cc89	0.04707006
71	0x3d0049bc	0.03132032
72	0x3cf360e1	0.029709281
73	0xbc4808d9	-0.012209141
74	0x3caa7237	0.020806415
75	0x3cfcd2a2	0.030862156
76	0x3d2533e1	0.04033268
77	0xbcd19302	-0.025582794
78	0x3c7f644b	0.015587877
79	0x3c485e28	0.01222948
80	0x3b3f2eb7	0.0029172131
81	0x3cb14ada	0.021642137
82	0xbb657e00	-0.0035017729
83	0x3d1116bf	0.035422083
84	0xbca45383	-0.020059353
85	0xbd0d5c62	-0.03451193
86	0xbc8beea3	-0.017081564
87	0x3c9a66a4	0.018847771
88	0x3c4b0d3e	0.012393294
89	0xbbcb4f28	-0.0062045045
90	0x3b878244	0.004135402
91	0x3c8cb939	0.017178165
92	0xbc874636	-0.016512971
93	0xbc0d0b9c	-0.008608725
94	0x3cc89532	0.024485204
95	0x3d70a490	0.05875069
96	0x3d76b9cd	0.060235787
97	0x3d875c4c	0.06609401
98	0x3d07a2cc	0.03311424
99	0xbbb6f62b	-0.0055835447
100	0x3b9644ed	0.0045858533
101	0x3d47d29e	0.048784845
102	0x3d1bf66b	0.0380768
103	0xbc0f5d04	-0.008750204
104	0x3b0adcac	0.002118866
105	0x3d2e6e20	0.042585492
106	0x3d0d1ca9	0.03445116
107	0xbcc9e4c0	-0.02464521
108	0x3c159f93	0.009132284
109	0x3c99c8ba	0.018772472
110	0x3c7c72e9	0.015408256
111	0x3cfd240e	0.030900981
112	0xbb18fef0	-0.0023345314
113	0xbcd0c4dd	-0.025484497
114	0x3cbdfc4b	0.023191592
115	0xbcd5b4ac	-0.026087128
116	0xbcc9bf94	-0.024627484
117	0xbd05ecf8	-0.032696694
118	0x3cff1619	0.031138467
119	0x3c81a5a1	0.015826048
120	0xbcc67610	-0.024226218
121	0x3c5a35db	0.013318504
122	0x3cbee840	0.023304105
123	0x3a83bca3	0.0010050725
124	0x3d28ddf1	0.041227285
125	0xbc547913	-0.0129683195
126	0x3a68f3c2	0.00088864204
127	0xbc99d44d	-0.01877799
128	0x3d1cfd82	0.0383277
129	0x3d3515ba	0.044210173
130	0xbc383ec3	-0.011245432
131	0x3bf60195	0.007507513
132	0x3d2555ff	0.040365215
133	0x3d04b745	0.032401342
134	0x398a392a	0.00026364002
135	0x3c1d68e1	0.009607525
136	0xbcefeae1	-0.029286804
137	0x3d0e7802	0.034782417
138	0xbd095b4b	-0.03353433
139	0xbd0348b8	-0.032051772
140	0x3ccdf8bc	0.02514302
141	0x3cadb3da	0.021203924
142	0xbcafb71e	-0.021449622
143	0x3c6dc8ff	0.014513253
144	0xbaf97921	-0.0019033292
145	0xbcdaa2f4	-0.02668903
146	0x3bb43ea7	0.005500633
147	0xbcd8a42a	-0.026445467
148	0x3b4feaf4	0.0031725736
149	0xbcc158a8	-0.023601845
150	0x3d414a9d	0.047190297
151	0x3cf31613	0.029673612
152	0x3ce9f98a	0.028561372
153	0x3d4093ac	0.04701583
154	0x3d288861	0.041145686
155	0xbc2ffe95	-0.010741849
156	0x3c5f3a97	0.013624809
157	0x3cedeab8	0.029042587
158	0x3bdc0611	0.0067145904
159	0xbb216a30	-0.0024629943
160	0x3d2f23f1	0.042758886
161	0xbc8133af	-0.015771715
162	0x3ce3160d	0.027720476
163	0xbb9303f5	-0.0044865557
164	0x3b73e002	0.0037212376
165	0xba1650e5	-0.00057341
166	0xbc80026c	-0.015626155
167	0x3bdc82c2	0.0067294547
168	0xbc66f91c	-0.014097478
169	0xbbf8c371	-0.007591658
170	0x3c614fb5	0.013751914
171	0xbd261af3	-0.040553045
172	0xbd25c124	-0.040467396
173	0xbcb5f9cf	-0.022213845
174	0xbcafc824	-0.02145774
175	0x3c4848ee	0.012224419
176	0xba0f8bc4	-0.0005475844
177	0xbcc6614e	-0.02421632
178	0x3c56398f	0.0130752465
179	0x3d36585a	0.044517852
180	0x3d3b6442	0.04574991
181	0x3d6cf9a4	0.057855263
182	0x3cf7e8ef	0.030262439
183	0x3d48c0ec	0.04901211
184	0x3d4addc6	0.049527906
185	0xbbdd69f3	-0.006757015
186	0xbcf1b9b7	-0.029507501
187	0xbb89e9a8	-0.004208762
188	0xbd205e29	-0.039152298
189	0x3c42bf3a	0.011886412
190	0x3c53fd2b	0.012938778
191	0xbca5b3c2	-0.020227317
192	0x3c38955f	0.011266082
193	0xbccd6ac5	-0.025075326
194	0x3cae3e10	0.021269828
195	0x3c557081	0.013027311
196	0xbc022c57	-0.007945142
197	0x3ccbe3fb	0.024888983
198	0xbce28efb	-0.027656069
199	0xbcb5d39f	-0.022195635
200	0xbd3ef1c4	-0.046617284
201	0xbcc6d9d9	-0.0242738
202	0x3b62a66b	0.0034584056
203	0xbce1e3ff	-0.027574537
204	0xbc143770	-0.00904642
205	0x3cf31b84	0.029676206
206	0x3cb26457	0.021776361
207	0x3d81d4fb	0.06339451
208	0x3d038f04	0.032118812
209	0x3caced10	0.021109134
210	0x3d848ab3	0.06471767
211	0x3d292b7c	0.041301236
212	0x3d0ab9be	0.033868544
213	0xbc6e3517	-0.014539025
214	0xbca780c7	-0.020447148
215	0xbd07ec17	-0.033184137
216	0xbc80514a	-0.015663762
217	0xbcf0db4a	-0.02940144
218	0xbcd70f0b	-0.02625229
219	0xbcdf3a29	-0.027249413
220	0x3d2830c0	0.041062117
221	0x3b219256	0.0024653873
222	0x3d0308d4	0.03199084
223	0x3ba3ad33	0.004995012
224	0x3bd406c0	0.006470531
225	0x3c81689b	0.01579695
226	0xbcde85a5	-0.027163336
227	0xbcc9d32d	-0.02463683
228	0xbb5568f5	-0.003256378
229	0xbd4a164a	-0.049337663
230	0x3c9ca779	0.019122826
231	0xbcf51454	-0.02991692
232	0x3cdbd425	0.026834557
233	0x3d514571	0.051091615
234	0x3d614ee2	0.05500687
235	0x3cc039b3	0.023465013
236	0x3ce7a7bb	0.028278222
237	0x3c976448	0.018480435
238	0xba2e4caf	-0.0006649
239	0xbcee863d	-0.029116744
240	0xbd8a64d2	-0.06757511
241	0xbdbe5ab4	-0.09294644
242	0xbd6531ed	-0.055955816
243	0xbd95f9b7	-0.0732302
244	0xbd5fd3f7	-0.054645505
245	0xbd2d46fb	-0.04230402
246	0xbd47c3aa	-0.048770584
247	0xbd17c998	-0.03705749
248	0xbcfe19a8	-0.031018093
249	0x3b251f22	0.0025195559
250	0xbbf6ac47	-0.0075278613
251	0xbbd3e38b	-0.006466334
252	0xbc112c8d	-0.008860719
253	0x3ab9ff77	0.0014190514
254	0x3c8d4ffa	0.01725005
255	0x3c5bbf6d	0.013412339

linear1.bias f4 [128]
0	0x3d79d5e0	0.060994983
1	0x3d662cb8	0.05619499
2	0x3b81f35e	0.003965779
3	0x3d1ab294	0.03776796
4	0x3dd42c9f	0.10360073
5	0xbd5ff661	-0.054678325
6	0x3d722d78	0.059125394
7	0xb91b5c01	-0.00014816226
8	0xbcd8a615	-0.026446382
9	0xbcce9607	-0.025218023
10	0x3dac425b	0.08411094
11	0x3d86ca41	0.065815456
12	0x3b0950dd	0.002095274
13	0x3be4007a	0.0069580646
14	0x3c90e7e3	0.017688697
15	0x3c306ec5	0.010768597
16	0xbd2bf42b	-0.041980904
17	0xbabd64e6	-0.0014449626
18	0xbd878bf4	-0.06618491
19	0x3c99a6b2	0.018756244
20	0xbc9b77ac	-0.018977962
21	0x3d12d610	0.035848677
22	0x3d7a890d	0.061165858
23	0x3d71fb5d	0.05907761
24	0x3da57d4e	0.080805406
25	0x3d6da6b9	0.058020327
26	0xbcd5bf26	-0.026092123
27	0x3cf67767	0.030086232
28	0xbcdca3af	-0.02693352
29	0xbc38d0b4	-0.011280227
30	0x3d1ed2f5	0.038775403
31	0xba9dd59f	-0.0012041813
32	0x3d32370e	0.043509535
33	0x3bd40f2b	0.0064715347
34	0x3d14e00e	0.036346488
35	0x3cadecd8	0.0212311
36	0x3d699ff6	0.057037316
37	0xbb77e543	-0.003782586
38	0x3c638240	0.0138860345
39	0x3d2a76f9	0.041617367
40	0x3d3e628d	0.046480704
41	0x3de7a99a	0.11311646
42	0x3d18ffea	0.037353434
43	0xbca8c7ca	-0.02060308
44	0x3b80a613	0.0039260476
45	0x3b843044	0.004034074
46	0x3d2ff0ea	0.042954363
47	0x3cb93240	0.022606969
48	0x3d292e2a	0.04130379
49	0xbd1ffc72	-0.03905911
50	0x3d824f26	0.063627526
51	0x3d584d79	0.05280826
52	0x3c814c15	0.015783349
53	0x3d1aaf21	0.037764672
54	0x3d6ba7f6	0.057533227
55	0x3d0b255a	0.033971168
56	0x3c2ea4d6	0.010659417
57	0xbb71e263	-0.0036908619
58	0x3c3e56e7	0.011617399
59	0x3d10341f	0.035205957
60	0xbb042e0f	-0.0020169055
61	0xbba4e26d	-0.005031875
62	0x3cf29816	0.029613536
63	0xbbd6c239	-0.006553915
64	0x3debb78c	0.11509618
65	0x3bd3460d	0.0064475597
66	0x3ca6d03c	0.020362966
67	0x3d178a9f	0.036997434
68	0xb9be5a8f	-0.00036307095
69	0xbd1490aa	-0.036270775
70	0x3b33fae2	0.002746277
71	0x3b44dc23	0.0030038438
72	0x3d911d0a	0.07085617
73	0xb9663081	-0.00021952578
74	0x3de49501	0.11161233
75	0x3d223c2b	0.039608162
76	0x3b413fd4	0.0029487507
77	0x3d762702	0.060095794
78	0x3b9ce966	0.0047885654
79	0xbc29fe28	-0.010375537
80	0x3d7569f1	0.059915487
81	0x3cbd85e5	0.023135135
82	0x3d6d7e98	0.057982057
83	0x3d3357df	0.043784972
84	0x3c6a25af	0.014291211
85	0x3d6d048c	0.057865664
86	0x3cedd3a3	0.02903158
87	0xbc4782dd	-0.012177196
88	0x3d0d49e8	0.03449431
89	0x3df1454e	0.11780797
90	0xbc172cef	-0.009227022
91	0x3c18a69e	0.009317068
92	0x3d8d8d83	0.06911757
93	0x3c90a550	0.017656952
94	0x3d035853	0.032066654
95	0xbd2a2bc1	-0.041545633
96	0xbbb54fdb	-0.005533201
97	0xbc368524	-0.011140142
98	0xbc9e3dbd	-0.019316548
99	0x3d6eedbf	0.0583322
100	0xbd016c34	-0.03159733
101	0xbac90ba9	-0.0015338558
102	0x3d247050	0.040146172
103	0xbc0e0401	-0.008667947
104	0x3cdf5596	0.02726249
105	0x3cf5d8b8	0.030010566
106	0x3d078bd8	0.03309235
107	0xbc81d67a	-0.01584934
108	0x3ce34a98	0.02774553
109	0x3bcb7eaf	0.00621017
110	0xbd25f821	-0.040519837
111	0xbcf588ba	-0.029972423
112	0x3c98c932	0.018650625
113	0xbb90c21f	-0.0044176723
114	0x3c602d72	0.01368271
115	0x3c8bc8c3	0.017063504
116	0x3d6c30b2	0.057663627
117	0x3d103750	0.035209
118	0x3d48857c	0.048955426
119	0xbb588c19	-0.003304249
120	0x3d430d43	0.04762007
121	0x3b09ca17	0.0021024996
122	0x3d250636	0.040289126
123	0xbbdd0ed9	-0.0067461547
124	0x3d572ede	0.05253493
125	0x3cfcfb42	0.030881528
126	0xbb1fa50e	-0.0024359855
127	0x3cd87327	0.026422096

linear2.weight f4 [64, 128]
0	0x3d4c9399	0.049945448
1	0x3d038d7c	0.032117352
2	0xbdb2455f	-0.08704638
3	0x3d920357	0.07129543
4	0x3db155dd	0.08658955
5	0x3dc10735	0.09425203
6	0xbca3313c	-0.019920938
7	0xbd8880fb	-0.06665226
8	0xbcbb6ded	-0.022879565
9	0xbd0ee849	-0.034889493
10	0x3d3a9a88	0.04555753
11	0x3dd483f4	0.103767306
12	0xbd8f347f	-0.06992435
13	0xbb6843fa	-0.0035440908
14	0xbd9bfc9c	-0.07616541
15	0x3c82dbf8	0.01597403
16	0x3d59d012	0.053176947
17	0xbdbd7006	-0.092498824
18	0x3cea0ebc	0.028571479
19	0xbd5126cd	-0.051062394
20	0x3d9e83d3	0.07739987
21	0x3d84649b	0.064645015
22	0xbc565184	-0.013080958
23	0xba4eb70c	-0.00078855525
24	0x3d258fd9	0.040420387
25	0xbcfe236c	-0.03102275
26	0xbdd869c0	-0.10567045
27	0xbdb6b9c7	-0.08922153
28	0xbd4c89fb	-0.049936276
29	0xbdc118e7	-0.09428578
30	0x3d182eb1	0.037153903
31	0xbb23fc2c	-0.0025022132
32	0xbcbe5bc6	-0.02323712
33	0x3c14acbb	0.009074385
34	0xbd14ea2b	-0.036356132
35	0xbe3170d0	-0.17328191
36	0xbce1f52f	-0.027582733
37	0x3df6cef6	0.120511934
38	0x3d5b068d	0.053473044
39	0x3d039c7c	0.032131657
40	0x3c4d5f3c	0.012534913
41	0x3d377cc9	0.04479674
42	0xbd62a687	-0.055334594
43	0x3dcff82c	0.10154757
44	0x3d004709	0.031317744
45	0xbdb658e3	-0.089036725
46	0x3cd0e102	0.025497917
47	0x3db2e259	0.08734579
48	0xbd690845	-0.056892652
49	0x3ce188af	0.027530996
50	0x3c783ec9	0.015151688
51	0x3c1c3c88	0.009535916
52	0xbd7b7d68	-0.061398894
53	0xbd8bff3e	-0.06835793
54	0xbd0b097b	-0.03394459
55	0xbd554c50	-0.05207473
56	0x3d2180c1	0.03942943
57	0x3ca67b4f	0.02032247
58	0xbdc4a853	-0.09602418
59	0xbd124bd5	-0.03571685
60	0xbd561f13	-0.05227573
61	0xbbf53ff2	-0.0074844295
62	0xbd11e0a2	-0.035614617
63	0x3da5e072	0.0809945
64	0xbd0d9bed	-0.03457253
65	0x3d42dba8	0.04757276
66	0x3d79b8e3	0.060967337
67	0xbcca0ee9	-0.024665313
68	0x3da75ab4	0.08171597
69	0xbd983298	-0.07431525
70	0x3c1b571b	0.009481217
71	0xbd998c19	-0.07497425
72	0xbd93d886	-0.07219033
73	0x3d893f39	0.06701512
74	0x3db7d31f	0.08975815
75	0xbd8ad8bd	-0.06779621
76	0x3dd1ddc5	0.10247377
77	0xbd641444	-0.05568339
78	0x3d67e3f0	0.056613863
79	0xbb2d2f6f	-0.0026425978
80	0x3d99e4b1	0.075143225
81	0xbd727d98	-0.059201807
82	0xbdcad607	-0.09904104
83	0x3d81141e	0.06302665
84	0x3d20bf5c	0.039244995
85	0x3d2e304a	0.04252652
86	0x3cf9b088	0.030479684
87	0x3df75fc1	0.120788105
88	0x3debceb6	0.11514036
89	0x3d69b1aa	0.0570542
90	0x3dce1024	0.10061672
91	0xbd50d97e	-0.050988667
92	0xbda82269	-0.08209688
93	0x3dd314e6	0.103067204
94	0xbd4773ff	-0.048694607
95	0x3c2a8f59	0.010410153
96	0x3d016f11	0.03160006
97	0xbc878174	-0.01654122
98	0x3d9d3341	0.076757915
99	0xbdb617de	-0.08891271
100	0x3c74dde0	0.014945477
101	0x3d9ce41b	0.07660695
102	0xbd25de36	-0.04049512
103	0x3d810778	0.06300253
104	0x3d90c0e9	0.07068045
105	0xbc6b74cd	-0.014371109
106	0x3d5c6799	0.053809736
107	0x3d49c39f	0.049258824
108	0x3db9c0a2	0.09069945
109	0x3d350a1c	0.044199094
110	0x3cf37628	0.029719427
111	0x3dbd795c	0.09251663
112	0xbcd64b8f	-0.026159076
113	0x3ddbf512	0.10740103
114	0x3ce272c6	0.027642619
115	0x3cd54b92	0.026037011
116	0xbd19c34d	-0.03753977
117	0xbd805f03	-0.06268122
118	0xbdaf3aff	-0.085561745
119	0xbd1477d7	-0.0362471
120	0xbd388613	-0.04504974
121	0xbd84d624	-0.064861566
122	0x3d70a9a5	0.058755536
123	0x3dd1b565	0.102396764
124	0xbb88a30a	-0.0041698264
125	0x3d344f28	0.0440208
126	0xbda3645c	-0.079781264
127	0xbd76d6c5	-0.060263414
128	0xbdb8f92a	-0.09031899
129	0x3d5f8eeb	0.054579657
130	0xbcc3bd3f	-0.02389395
131	0x3dc6945e	0.096962675
132	0x3c69883e	0.014253674
133	0xbcc14d7d	-0.02359652
134	0x3c868447	0.016420497
135	0xbcce4a9f	-0.025182066
136	0xbce83269	-0.02834435
137	0xbc3aadbe	-0.011393962
138	0x3cea728d	0.028619075
139	0x3e3452c3	0.17609696
140	0xbc92e95d	-0.017933542
141	0xbda8197b	-0.08207985
142	0xbc861358	-0.016366646
143	0x3e08c717	0.13357197
144	0xbdb5a3c9	-0.0886913
145	0x3d3b3218	0.04570207
146	0xbe5edbad	-0.21763487
147	0xbb0c722d	-0.0021430359
148	0x3e3ccda1	0.18437816
149	0xbdfccdcf	-0.123439424
150	0xbc977581	-0.018488647
151	0xbd171aa7	-0.036890652
152	0x3ca83687	0.020533813
153	0xbdaa0d23	-0.08303287
154	0xbcc9bce0	-0.024626195
155	0x3d1603bb	0.03662465
156	0x3dace1b7	0.08441489
157	0xbc7b8859	-0.015352332
158	0x3c5e7a86	0.013579017
159	0x3c631b92	0.013861554
160	0x3dabe7a5	0.08393792
161	0x3c386600	0.011254787
162	0x3d5cecf6	0.05393692
163	0xbe2d6d11	-0.16936137
164	0x3d8d9f5d	0.06915162
165	0xbcfb78a0	-0.030697167
166	0xbb1f7930	-0.0024333708
167	0x3d8fe4a9	0.07026035
168	0xbd35c0b4	-0.04437323
169	0x3db9cadc	0.090718955
170	0xbd83e312	-0.064397946
171	0x3d973350	0.07382834
172	0x3d1fad81	0.038983826
173	0xbd0e6ff4	-0.034774736
174	0x3dd0ebd7	0.10201233
175	0xbce06eb0	-0.02739653
176	0x3de9cdf2	0.11416234
177	0xbd00a1e6	-0.0314044
178	0x3dcaa375	0.09894458
179	0x3d173d2d	0.036923576
180	0x3d8ff50f	0.07029163
181	0xbdc7a01c	-0.09747335
182	0xbce43f11	-0.027862104
183	0xbd1136de	-0.035452716
184	0xbdbe1670	-0.09281623
185	0x3dfa8913	0.12233176
186	0x3da26412	0.07929243
187	0xbd89c762	-0.067274824
188	0xbdac0a21	-0.084003694
189	0x3d85d9ef	0.06535708
190	0xbd2c85d8	-0.04211983
191	0x3ddac56f	0.10682189
192	0xbd6fbe48	-0.058531076
193	0x3d967a9f	0.07347607
194	0x3c923368	0.017846778
195	0x3e4f241f	0.20228623
196	0xbb80bdb2	-0.0039288634
197	0x3d77705b	0.060409885
198	0xbd7dfe3c	-0.062010035
199	0x3cfaa787	0.030597461
200	0xbd75dbe4	-0.060024157
201	0xbdb52150	-0.088442445
202	0x3e1066d8	0.14101732
203	0xbbbd2f21	-0.0057734405
204	0x3cee8fdb	0.02912133
205	0xbdb6db5c	-0.08928558
206	0xbd95eb48	-0.07320267
207	0xbd7113e8	-0.058856875
208	0x3d3f76e1	0.04674423
209	0x3de12765	0.10993842
210	0x3ce40a0e	0.027836826
211	0x3d3c2ed5	0.0459431
212	0xbcef57f4	-0.029216744
213	0xbc1c48bb	-0.009538825
214	0xbd46e072	-0.04855389
215	0xbc2fd762	-0.010732504
216	0xbca89502	-0.020578865
217	0xbcb70804	-0.02234269
218	0x3c94ca31	0.018162819
219	0xbcc9cd3a	-0.024633992
220	0x3d28c41f	0.04120266
221	0xbd358c64	-0.04432334
222	0xbd22e054	-0.039764717
223	0x3d816f1a	0.06320019
224	0x3e36ceed	0.17852373
225	0x3d4566fd	0.04819392
226	0x3db2e6b8	0.08735412
227	0x3d342a9f	0.04398596
228	0xbc0133ae	-0.007885857
229	0xbd62e7f0	-0.055396974
230	0x3daf68e4	0.08564928
231	0xbce3e9dd	-0.027821476
232	0x3c70b8df	0.014692514
233	0x3d5bc953	0.053658795
234	0xbd673f69	-0.056456957
235	0x3db9f9de	0.090808615
236	0x3d8d89ac	0.069110245
237	0x3ddd301b	0.10800191
238	0x3d9cb02d	0.0765079
239	0xbdf30fce	-0.11868249
240	0x3d078eed	0.03309529
241	0xbd3240ea	-0.043518938
242	0x3de1b5a8	0.11020976
243	0xbe12474e	-0.14285013
244	0x3d0a76dd	0.033804763
245	0x3d8b4877	0.06800931
246	0xbceef474	-0.029169299
247	0xbbb66a5b	-0.005566878
248	0xbd894d7e	-0.067042336
249	0x3de3cd3d	0.111231305
250	0xbdad664f	-0.084667794
251	0x3e34725d	0.17621751
252	0x3e0f9ccf	0.14024661
253	0x3e180a3e	0.14847657
254	0x3d54bb66	0.05193653
255	0x3cf9adc1	0.03047836

linear2.bias f4 [64]
0	0xbd9c575f	-0.07633852
1	0x3deaf253	0.11472001
2	0xbc3a9ed0	-0.011390403
3	0x3dfb4385	0.12268738
4	0x3ca16629	0.019702034
5	0x3dd37eaf	0.10326897
6	0x3d4740ae	0.048645668
7	0x3e6c7d8c	0.23094767
8	0x3dd7c099	0.10534782
9	0xbd235456	-0.03987535
10	0x3d714d3b	0.058911543
11	0x3d33ddd6	0.04391273
12	0x3dcd7504	0.100320846
13	0xbcd1e70a	-0.025622863
14	0x3e1114ed	0.14168139
15	0x3d99a6e0	0.07502532
16	0xbd1d95e8	-0.03847304
17	0x3d731ad4	0.059351757
18	0xbcf6fdd3	-0.03015033
19	0xbd36c981	-0.044625763
20	0xbcb706b6	-0.022342067
21	0x3ceed329	0.029153423
22	0x3dfc2ddd	0.12313435
23	0xbda702ee	-0.08154856
24	0x3dc98180	0.09839153
25	0x3daea038	0.08526653
26	0x3ccce06e	0.02500936
27	0x3e2f3ff0	0.17114234
28	0x3e0be28f	0.13660644
29	0xbca3a86a	-0.019977767
30	0x3e951fbe	0.2912578
31	0xbdab5eb4	-0.083676726
32	0x3d150279	0.03637931
33	0xbd5806e9	-0.052740965
34	0xbd8fb8ab	-0.070176445
35	0x3de93feb	0.113891445
36	0x3db8bb04	0.090200454
37	0x3ca207a8	0.019779041
38	0xbc91c6aa	-0.017794926
39	0x3d968f06	0.07351498
40	0x3d9ede36	0.07757227
41	0x3c7489c4	0.014925424
42	0x3d12c4ef	0.03583234
43	0x3d7b3172	0.06132645
44	0x3dc557c2	0.09635879
45	0x3e89da40	0.26924324
46	0xbcdf3891	-0.027248653
47	0xbca32ffe	-0.019920345
48	0xbd1b4501	-0.037907604
49	0x3e21c83a	0.15799037
50	0x3cee689d	0.029102618
51	0x3d5853c4	0.05281426
52	0xbd542605	-0.05179407
53	0xbd867cc8	-0.06566769
54	0x3d803314	0.062597424
55	0xbc9e1a4f	-0.019299654
56	0x3d19e452	0.03757126
57	0x3d4cebbf	0.050029512
58	0xbd75dde3	-0.06002606
59	0x3db2bede	0.08727811
60	0x3da0641d	0.07831595
61	0xbd548db5	-0.051892955
62	0x3db0f42a	0.086403206
63	0xbca3786c	-0.019954883

linear3.weight f4 [10, 64]
0	0x3e2573a4	0.16157395
1	0xbc8bae1f	-0.0170508
2	0xbe0a335f	-0.13496159
3	0xbe6dc453	-0.23219423
4	0x3cbf0e89	0.02332236
5	0x3d68dcf8	0.056851357
6	0x3e51c55c	0.20485443
7	0xbe7c9a38	-0.24668205
8	0x3ce82b82	0.028341059
9	0xbdbef1a9	-0.09323437
10	0x3d9c78d8	0.076402366
11	0x3d6e010d	0.05810647
12	0x3eeafd56	0.45896405
13	0xbe554e0c	-0.20830554
14	0x3ee2cca3	0.4429675
15	0xbe483bc7	-0.19554053
16	0x3d183e2d	0.03716867
17	0xbdd52851	-0.1040808
18	0xbd202528	-0.039097935
19	0xbdd0e99a	-0.10200806
20	0xbd048a87	-0.032358672
21	0xbd8fb0ee	-0.070161685
22	0xbda5b8c2	-0.080918804
23	0x3ddabeb7	0.10680907
24	0x3dae8da4	0.085231096
25	0xbd069c0b	-0.032863658
26	0x3df79416	0.12088792
27	0xbc18b247	-0.009319848
28	0xbc9f0b05	-0.019414434
29	0x3e60dfe4	0.21960407
30	0xbea59923	-0.32343397
31	0x3c927cec	0.017881833
32	0xbdba2748	-0.090895236
33	0xbd43ee08	-0.047834426
34	0xbc3e9866	-0.011633014
35	0xbcfda590	-0.030962735
36	0xbe0c368e	-0.13692686
37	0x3d0b3643	0.033987295
38	0x3d4a4cb4	0.049389556
39	0x3c56b4e9	0.013104656
40	0x3e9a26ba	0.3010767
41	0xbe1b6fb6	-0.15179333
42	0x3ef348c0	0.4751644
43	0xbebc49c4	-0.3677503
44	0xbea9a203	-0.33131418
45	0xbf2c6a3a	-0.6734959
46	0x3d187d81	0.037229065
47	0xbdafcbc1	-0.08583785
48	0xbe5a570d	-0.2132227
49	0xbec56c6c	-0.38559282
50	0xbe19f938	-0.15036476
51	0x3eab871a	0.33501512
52	0xbe8d582b	-0.2760633
53	0x3ca5d4bb	0.02024304
54	0x3e880128	0.26563382
55	0x3ddcad6d	0.10775266
56	0x3e060b41	0.1309023
57	0x3ee37299	0.4442337
58	0xbd238d46	-0.03992965
59	0x3e1bddd4	0.1522134
60	0xbd4d3f6e	-0.05010932
61	0x3da091d8	0.078403175
62	0xbe0c8eaa	-0.13726297
63	0xbe24ece0	-0.16105986
64	0x3d638869	0.055550013
65	0x3d2f42e2	0.042788394
66	0xbedb6881	-0.42853168
67	0x3d53b3e5	0.051685233
68	0xbe96ec91	-0.2947736
69	0xbe05b3d1	-0.13056876
70	0xbbef76e2	-0.007307873
71	0xbe6be9fb	-0.23038475
72	0x3e37e569	0.17958607
73	0x3da2abdb	0.07942935
74	0x3daf941e	0.08573173
75	0xbd4dbd2b	-0.050229233
76	0xbee33dd2	-0.44383103
77	0x3e293e02	0.1652756
78	0xbe99574c	-0.29949415
79	0xbe8692ed	-0.2628397
80	0xbc82b9d7	-0.015957756
81	0xbe158cc7	-0.14604484
82	0xbda2be65	-0.07946471
83	0xbd5c201f	-0.05374157
84	0xbe62ed10	-0.22160745
85	0xbd56d748	-0.052451402
86	0xbd8de55b	-0.06928512
87	0x3dca5df0	0.098811984
88	0xbcd5f1ed	-0.026116336
89	0xbe53beff	-0.20678328
90	0x3da15547	0.078775935
91	0x3e771a93	0.24131231
92	0x3d991695	0.0747501
93	0xbe6aafc0	-0.22918606
94	0x3e3944f6	0.18092713
95	0xbb14bfb4	-0.0022697272
96	0x3de47377	0.11154836
97	0xbecfde07	-0.4059908
98	0xbddcc702	-0.10780145
99	0x3f103814	0.5633557
100	0x3dad802a	0.08471711
101	0xbdf71834	-0.12065163
102	0x3e877078	0.26452994
103	0xbed4491c	-0.41462028
104	0xbc3db7fc	-0.01157951
105	0x3e72da7f	0.23716162
106	0xbed85c35	-0.42257848
107	0xbce1ff29	-0.02758749
108	0x3e4afe97	0.19823681
109	0x3f2255bc	0.6341207
110	0x3cbaef4b	0.022819182
111	0x3da20f84	0.079131156
112	0xbc8419b2	-0.016125534
113	0x3e39fbaf	0.18162416
114	0x3f08551a	0.53254855
115	0x3a23c5a9	0.000624741
116	0xbe55483b	-0.20828335
117	0xbc055b9e	-0.008139519
118	0xbe099500	-0.13435745
119	0xbe5d4666	-0.21608886
120	0xbd4be4f1	-0.049778882
121	0xbea36f23	-0.31920728
122	0x3cee9a8b	0.029126426
123	0xbe8a71b5	-0.27039877
124	0xbc535c38	-0.012900405
125	0x3b83a384	0.0040172953
126	0x3d868fd7	0.06570404
127	0x3d82f599	0.063945
128	0xbd2c74ab	-0.04210345
129	0x3e353a8e	0.17698118
130	0x3e2d0c99	0.16899337
131	0x3d9f77a6	0.07786493
132	0x3ea2935a	0.31753045
133	0x3d85bf39	0.065306135
134	0x3d976898	0.073929965
135	0xbd10dec0	-0.03536868
136	0xbe4af510	-0.19820046
137	0x3cb3c7f7	0.021945937
138	0x3d22aec5	0.039717454
139	0x3dd10386	0.1020575
140	0x3f09f427	0.5388817
141	0xbea9c4eb	-0.3315805
142	0xbe6181f1	-0.22022225
143	0x3e8d96ca	0.27654105
144	0xbdd2c9c6	-0.102923915
145	0x3d965e7a	0.07342239
146	0xbdc9f3f6	-0.09860985
147	0x3c682536	0.014169028
148	0xbe77d1bb	-0.242011
149	0x3c8a7220	0.016900122
150	0x3d8527ca	0.0650173
151	0x3cd99c60	0.026563823
152	0xbe99ec62	-0.30063158
153	0x3e71911e	0.23590514
154	0x3cbaa2e1	0.022782745
155	0x3ed700a7	0.41992685
156	0xbe856c64	-0.26059258
157	0x3d934aa6	0.071919724
158	0xbe17f3ff	-0.14839171
159	0x3e272883	0.16324048
160	0x3d6adde7	0.05734053
161	0x3e94e9a3	0.290845
162	0x3d522333	0.0513031
163	0x3eb996d1	0.36247876
164	0xbda2ffea	-0.07958968
165	0x3ef05993	0.4694334
166	0xbe4a06e4	-0.19729191
167	0xbea1020e	-0.3144688
168	0xbd3a5ed5	-0.045500595
169	0x3ee23a32	0.44185024
170	0xbd4664cb	-0.048435967
171	0xbee0cad5	-0.4390475
172	0xbe0a54d9	-0.1350893
173	0x3eada1ac	0.33912408
174	0xbdef37f9	-0.11680598
175	0xbddbf58a	-0.10740192
176	0x3e8461de	0.25855917
177	0xbe82abad	-0.25521603
178	0xbeb35fe8	-0.35034108
179	0xbe1b34ea	-0.15156904
180	0xbe342461	-0.17592002
181	0xbd090e28	-0.033460766
182	0xbe66c7bf	-0.22537135
183	0x3ec8c645	0.39213768
184	0x3ed87362	0.4227553
185	0x3e86860e	0.2627415
186	0xbd031b63	-0.03200854
187	0xbe72d37b	-0.23713486
188	0x3ea7d2ea	0.32778102
189	0xbd9eeddf	-0.07760214
190	0x3dfa0dee	0.12209688
191	0x3e3f12bd	0.18659492
192	0xbe506510	-0.20351052
193	0xbe08ed3b	-0.13371746
194	0xbe8aced3	-0.2711092
195	0x3ec1c304	0.37844098
196	0xbd91614e	-0.070986375
197	0x3d0aa319	0.03384695
198	0x3df3cfa4	0.11904839
199	0xbe377d73	-0.17918949
200	0xbefff03e	-0.49987978
201	0xbc91420e	-0.017731693
202	0x3daf6d8a	0.08565815
203	0x3d84857c	0.064707726
204	0xbc9c923b	-0.019112697
205	0xbd1621b8	-0.03665325
206	0xbf07762b	-0.52914685
207	0x3e4c4a67	0.19950257
208	0xbd94b607	-0.072612815
209	0x3d9cd030	0.07656896
210	0x3dbb8c78	0.09157652
211	0xbeaf3ecf	-0.34227607
212	0x3ec15173	0.37757453
213	0x3d769a64	0.060205832
214	0xbe58d941	-0.21176626
215	0x3df628cd	0.12019501
216	0xbe80c7c1	-0.251524
217	0x3b985250	0.0046484843
218	0x3f07baf7	0.5301966
219	0xbdb5dc0a	-0.0887986
220	0x3e9dfd92	0.3085752
221	0x3e7913f0	0.24324012
222	0x3e4398ca	0.19101253
223	0x3d3209ef	0.043466505
224	0xbe80a8d8	-0.25128818
225	0xbcc3ac84	-0.023885973
226	0x3d64d193	0.055863928
227	0x3e8c0610	0.27348375
228	0x3e903028	0.2816174
229	0xbe0dc903	-0.13846211
230	0xbe37d7ad	-0.17953368
231	0xbd6bae9b	-0.057539564
232	0xbef9e14e	-0.48804706
233	0xbe0d4f27	-0.13799725
234	0x3e817e35	0.252916
235	0xbe82d5df	-0.25553796
236	0xbeeae5c4	-0.45878422
237	0x3ddfa25c	0.109196395
238	0xbdf30cf2	-0.118677035
239	0xbb69dc9c	-0.0035684472
240	0xbe4dacaa	-0.20085397
241	0xbda6a5e6	-0.08137111
242	0x3efa328a	0.48866683
243	0xbb7dc803	-0.0038723953
244	0x3ead4b5b	0.33846554
245	0xbe127a06	-0.14304361
246	0xbc52d346	-0.012867754
247	0x3e23ea72	0.16007403
248	0xbe4878e6	-0.19577369
249	0x3e393517	0.18086658
250	0x3df32d84	0.11873916
251	0xbe253144	-0.16132075
252	0x3c6da0be	0.014503656
253	0x3d60e395	0.05490454
254	0x3def208f	0.11676132
255	0x3d6065be	0.05478453

linear3.bias f4 [10]
0	0xbe8158bb	-0.25263008
1	0x3da902aa	0.08252461
2	0x3dc125f3	0.09431066
3	0x3c7546f0	0.014970526
4	0x3a487328	0.0007646554
5	0x3e046014	0.12927276
6	0xbb87cd2b	-0.004144331
7	0x3e13d8c0	0.14438152
8	0xbebba139	-0.3664644
9	0x3d5751fd	0.052568424
